backend/ia_models/modelo.pt (torch, 300696 bytes, 6 tensors)

weight_ih_l0 f4 [512, 3]
000000 c1 e1 5e 3d 87 ed fc bd da a8 37 be da 38 0e 3c
       0.054414514 -0.12349992 -0.17935506 0.008680547
000010 2f d7 ed bc a1 02 4d bd 92 50 50 bd 96 f6 19 bd
       -0.029033272 -0.050051335 -0.050858088 -0.03758868
000020 66 2c 8a bb 6a 82 83 3e 99 2f 00 3e da cf b3 3d
       -0.0042167185 0.25685436 0.12518157 0.08779879
000030 17 b4 4f bb ca 42 9a 3e fd 08 e1 3d d1 eb 67 3d
       -0.0031693035 0.3012908 0.109880425 0.056621376
000040 a2 c7 1e be 88 7f 3d 3d df 79 3d 3d 08 e0 33 bd
       -0.15505841 0.0462642 0.046258803 -0.043914825
000050 9a 76 36 3d 1f 59 9d 3d e3 a6 8c 3b 56 de c5 bd
       0.0445467 0.07683014 0.0042923554 -0.09661548
000060 60 73 1f 3e 4b 2a 87 bd c7 db d4 bd f0 86 af bd
       0.15571356 -0.065998636 -0.10393482 -0.08570659
000070 48 8c 9c bc 59 48 85 3c 6d 51 bc bb d5 4c 03 bd
       -0.01910986 0.01626985 -0.0057470114 -0.032055695
000080 69 64 8e bd 33 50 87 3e c7 73 f0 3c e4 c0 09 bd
       -0.069527455 0.26428375 0.029352082 -0.03363122
000090 ac db a8 bd 61 0d 0a bd e5 fc 60 3d 1a 52 1e 3e
       -0.08245024 -0.033704165 0.05492868 0.15461007
0000a0 64 6d 2e bc e1 20 7e 3d 94 92 81 be 42 b0 87 bd
       -0.010646198 0.062043075 -0.25307143 -0.066254154
0000b0 30 ff c6 bb 58 17 c8 be 21 fd c7 3e 9f e4 88 3e
       -0.006072901 -0.3908031 0.3906031 0.26736924
0000c0 3c 29 18 bc 29 44 18 bd 87 1d bf 3d 78 a8 86 3d
       -0.009287175 -0.037174378 0.09331804 0.065751016
0000d0 d0 e8 18 3e c6 4d 5e 3c 21 e1 2f bc 95 f0 67 bc
       0.14932561 0.013568347 -0.010734827 -0.01415648
0000e0 71 38 69 bd d0 44 84 3d 37 dd d1 bd 7d 5d 09 3d
       -0.056938592 0.064584374 -0.102472715 0.033536423
0000f0 b5 60 21 bd 68 19 9b 3e a6 7f 5a 3e d8 92 43 3e
       -0.039398868 0.3029282 0.21337757 0.19098985
000100 2b fe fc 3b 87 21 db 3c 70 09 8e 3e 8e c0 92 bc
       0.007720729 0.026749386 0.27741575 -0.017914083
000110 28 eb 78 3d ff a7 04 3e 29 65 52 3d 82 92 29 bd
       0.060771137 0.1295471 0.051366005 -0.041399486
000120 35 86 8b 3e 88 0d 4a bd 9e ed d1 bc c9 ba ba 3d
       0.2725083 -0.04932931 -0.025626 0.09117658
000130 18 3b 22 bd 57 b6 16 3d ce 3b fd 3d 2d 6c 9a 3d
       -0.039607137 0.036794987 0.123649225 0.07540164
000140 ef c3 59 bd b0 4e 8f 3d 2f 96 e4 bd 2b c0 11 3e
       -0.053165372 0.0699743 -0.11161458 0.14233463
000150 67 79 89 3e fa ac 78 3d d1 05 91 3d d5 5a b0 3b
       0.26850435 0.06071184 0.070811875 0.005381922
000160 26 a3 ac 3d 84 4f 6f 3d 8f 50 63 3d 04 92 b4 bd
       0.084295556 0.05842544 0.05549675 -0.08816913
000170 95 58 4e 3e 44 50 c3 3d eb d8 a1 3a 8a e0 b9 bc
       0.20150979 0.09536794 0.0012347972 -0.022690076
000180 90 09 09 3e d3 8f a8 3d a8 d0 0a bd d3 a2 fb 3c
       0.13382554 0.08230557 -0.033890396 0.03071729
000190 58 ec 83 bd 77 f0 43 3d fb 70 1e bc 0a 38 64 3d
       -0.06441563 0.047836747 -0.009670491 0.055717506
0001a0 f3 4c c9 3d 9b 49 d1 3e 2c 3a d2 3d af d6 87 3d
       0.0982913 0.4087647 0.10265002 0.066327445
0001b0 3d 06 b0 3d 01 52 cb 3d d6 3b 6a 3e ae a6 92 3e
       0.0859494 0.099277504 0.22874388 0.28642792
0001c0 75 06 97 3d b8 c6 a3 3e 85 ad c6 bc c3 51 51 3d
       0.073742785 0.31987548 -0.024252662 0.051103365
0001d0 e3 30 87 3a d5 d0 2f bd c8 ac e1 3d 54 ad f5 3d
       0.0010314252 -0.042923767 0.110192835 0.1199595
0001e0 25 bb 5a 3d 43 cd e7 bc fd e7 b1 3d 85 fb 67 3d
       0.05340113 -0.028296119 0.086868264 0.056636352
0001f0 0a 44 17 3c b4 db 0c be 40 68 c0 bd 4a 1b a0 bb
       0.00923253 -0.13755685 -0.09394884 -0.0048860656
000200 9a da 8b bd 49 b1 07 be 8e 16 81 3c 95 aa 80 3d
       -0.06828804 -0.13251223 0.015757825 0.06282536
000210 e5 b1 7e 3e 39 93 aa 3c 4a 06 9e bd 8a bc 4b 3e
       0.24872549 0.020822154 -0.07716043 0.1989614
000220 50 59 17 3e 0e 47 75 3d 7d 05 0f 3d 7f 65 84 3d
       0.14780164 0.059882216 0.034917343 0.06464671
000230 47 9b 42 3e fa c6 fe bc a7 a0 3d 3d a5 11 c0 3d
       0.19004546 -0.031100739 0.04629579 0.093783654
000240 cc ad ef 3d 75 d6 d4 3c 39 9e ab bc df d0 9e 3d
       0.11703071 0.025981167 -0.02094947 0.07754683
000250 81 2a 21 bc 2a b8 83 3d ad 72 7d bd 95 64 3f be
       -0.009836794 0.06431611 -0.06187694 -0.18690713
000260 a0 d3 df bc 58 83 ba 3d 01 8e a5 3d 66 f6 16 3e
       -0.02732259 0.09107083 0.08083726 0.14742431
000270 c0 2c 64 3e 5c f1 de 3d b5 27 72 3c e0 27 1a 3e
       0.22282696 0.108858794 0.014779975 0.15054274
000280 8b 01 15 bc 17 63 9c 3e 34 67 9d 3e a5 7c 07 3e
       -0.009094606 0.3054435 0.307428 0.13231142
000290 33 95 7b 3e 5d 4a 42 3e 49 86 3d 3e a8 9a d1 3d
       0.24568634 0.1897368 0.18508257 0.102345765
0002a0 e0 de 48 3c d3 07 2e 3e a7 de 6b 3d 22 57 83 3d
       0.012260169 0.16995172 0.057585385 0.06413104
0002b0 2c 8d 91 3d 7a 80 bc 3d a1 62 5a 3c 1b 7b 6f bc
       0.071070045 0.092041925 0.013329179 -0.014616753
0002c0 df 1f 8f 3c f4 a7 a6 3d 7d ad ec bc 68 da 84 3d
       0.017471252 0.08137503 -0.02889132 0.0648697
0002d0 a4 4a e3 3d 1a 89 ff bd 2b 55 10 3e 17 bd d6 3d
       0.11098221 -0.12477322 0.14094989 0.10485285
0002e0 fc 38 40 3d 0c 57 ca bc c4 34 c9 3d 99 37 89 3d
       0.046929345 -0.02469971 0.09824517 0.067000575
0002f0 b6 0b fa bc 05 cf b8 3d 38 d9 a6 bc 8e 09 79 bc
       -0.030523162 0.09023861 -0.02036725 -0.015200032
000300 60 d0 1b 3e 72 21 61 3b a0 b6 84 bd be a9 a7 3d
       0.15216208 0.003435221 -0.064801455 0.08186673
000310 2f 8a f6 bc 9b 74 19 be bd 76 7b 3d e3 ca a8 3d
       -0.030095188 -0.14985888 0.061392535 0.082418226
000320 d8 4b e5 3d fb f1 62 bc 00 c8 c7 bd 57 2c fe bd
       0.11196107 -0.013851638 -0.09754944 -0.12410801
000330 1f 5b 0e be c9 fa 34 3c 57 04 c4 bd cc 96 0e 3c
       -0.13901947 0.01104612 -0.0957114 0.008702945
000340 d4 ef f1 bc cc b8 00 3e e0 f3 29 bd a6 ff bc 3c
       -0.029533304 0.12570494 -0.041492343 0.023071121
000350 af 34 51 3d d6 f4 dc 3d f7 69 98 3d 89 eb e8 bb
       0.051075634 0.10788886 0.07442086 -0.007108156
000360 2c 04 a0 3d 2c 6e 23 bd 14 02 71 bd df 8b 97 bd
       0.07813296 -0.03989999 -0.058839872 -0.07399725
000370 7e 1c 1f 3d cf 29 ef 3d c6 23 d5 3d f8 e4 b7 3d
       0.03884553 0.11677896 0.10407214 0.08979219
000380 40 a9 73 bd 2b 30 fe 3c 68 23 50 bc 9a 18 03 3e
       -0.05948758 0.031028828 -0.012703754 0.12802354
000390 f9 a1 64 be 59 32 6e 3b 83 a2 af 3d b7 35 b6 bc
       -0.22327413 0.0036345928 0.085759185 -0.02224241
0003a0 fe 27 4d 3d 45 65 bb 3c 30 49 0e be e8 1e 37 3d
       0.050086968 0.022875438 -0.13895106 0.04470721
0003b0 e8 69 16 3e 8a 4b 94 3d d2 c6 41 bd 13 67 68 3d
       0.14688838 0.072409704 -0.04730875 0.056738924
0003c0 83 85 28 3e 33 8d a4 3d 63 4b ae 3d 05 78 b7 3d
       0.1645718 0.08034744 0.085104726 0.08958439
0003d0 d0 23 2f bc 59 b3 41 3d 49 8e 40 bd c3 0e 4a 3d
       -0.010689691 0.04729018 -0.047010694 0.049330484
0003e0 08 ed 94 bd a3 b8 80 3e 19 5e c4 3d 8d c2 5f bd
       -0.072717726 0.25140867 0.0958826 -0.054628897
0003f0 09 3f 95 3d 50 fb 30 3d fe 3a 1a 3e 82 ac af 3d
       0.072874136 0.04320842 0.15061566 0.08577825

weight_hh_l0 f4 [512, 128]
000000 35 b4 83 3d 56 13 9f 3c 25 27 f3 bd c6 4a a7 3d
       0.06430856 0.0194184 -0.118727006 0.08168559
000010 c0 ee d5 bd d7 9c 42 bc 58 bc 85 3d 27 c9 3b 3d
       -0.104459286 -0.011878214 0.06530064 0.04584613
000020 91 60 b7 3c 08 0b 33 3d 64 a8 42 3d b7 10 ca 3d
       0.022384914 0.043711692 0.04752387 0.09866469
000030 49 08 e1 3d fd 82 fe 3b ce d4 20 3d bc 90 c3 3d
       0.109879084 0.00776708 0.039265446 0.0954909
000040 75 0e 06 3d d8 f1 9c bd d7 c4 56 bd f2 4e a3 bd
       0.03272863 -0.076633155 -0.052433815 -0.07974042
000050 7e ac 6d be 73 10 22 3e c0 a5 6f 3d 91 6b 7d be
       -0.23210332 0.15826587 0.05850768 -0.24748065
000060 eb 00 45 3e e2 2f 46 3c b3 bc 64 3e 1f bc 5f bd
       0.19238631 0.012096377 0.22337608 -0.054622766
000070 9e ed 17 be 69 36 e2 3b 3c db de 3d 02 07 fa bc
       -0.14836738 0.006903459 0.108816594 -0.03052092
000080 b2 00 67 3d d5 a6 a5 bd b2 4b 31 3c 04 71 b4 3d
       0.056397147 -0.08088461 0.01082127 0.088106185
000090 89 65 6d 3d 0f 11 7c be 5f 16 c0 bc 4d 22 82 bc
       0.05795816 -0.24615882 -0.023448167 -0.015885497
0000a0 14 68 34 3d 8f c0 7e bd 87 2c 59 3d 48 a4 8c bc
       0.04404457 -0.062195357 0.05302098 -0.01716818
0000b0 53 de f3 3c 59 f7 11 3e 1a 87 f4 3a c4 75 f0 bc
       0.029769098 0.14254512 0.0018655986 -0.02935303
0000c0 dd 0a e8 bd ac 16 36 bc 5e 3a 8f bc 65 ec 11 bc
       -0.11330197 -0.011113804 -0.017483886 -0.0089064585
0000d0 5a 71 09 3e 70 df 55 bd 2c 26 b8 bd 66 e2 8e bd
       0.13422146 -0.05221504 -0.08991656 -0.06976776
0000e0 bf 05 4e 3c 47 ad a1 3c 9c ed a9 3d 69 4f 09 be
       0.012574612 0.019735945 0.082972735 -0.13409199
0000f0 3a ee 38 3d 68 38 82 3c 1d 7e a3 3d ff 8c 9e bc
       0.045149066 0.015896037 0.079830386 -0.019354342
000100 d2 b6 28 bd 66 80 0a bc cf 1f 80 3d 89 9d 6a bd
       -0.041189976 -0.008453464 0.06256067 -0.057279143
000110 8c cd ab 3c f5 0a 05 3e bc 83 f0 3c 29 e5 fb bc
       0.020972036 0.12992461 0.02935969 -0.03074892
000120 da 88 2a bd 45 f5 40 3d 75 dd ca bd 21 38 c3 bd
       -0.041634418 0.047108907 -0.09905521 -0.0953219
000130 11 1f 82 bd 9f 62 08 3a ff 4e dd 3c 2d e4 67 bd
       -0.06353582 0.0005202684 0.027015207 -0.05661409
000140 c1 00 c9 3d 4e 95 69 3d 8d ed 8f bd 31 41 fb bb
       0.09814597 0.057027154 -0.07027731 -0.0076676835
000150 06 cb 4a bd 8c f0 5d 3c 1a a3 76 bc 49 9d c5 bd
       -0.049510024 0.01354612 -0.015053535 -0.096491404
000160 f5 f4 93 3d b5 5d d5 3c c8 1c 3f 3d 52 40 bf 3d
       0.07224456 0.02604566 0.046658307 0.0933844
000170 24 9e a3 bd d1 2b e6 bd 26 88 32 be e2 cb 90 bd
       -0.07989147 -0.11238826 -0.17434749 -0.070701376
000180 f9 14 00 3e 62 82 82 3d 00 66 53 3d 6f 1d 15 bc
       0.12508 0.06372525 0.051610947 -0.009101256
000190 66 8f 12 be f0 f7 88 bc d3 1e 62 3d 0c c4 5d bd
       -0.14312515 -0.016719788 0.055205178 -0.054142043
0001a0 f6 9b 06 3d e1 cc 9f 3d b8 af ae bc 50 e8 a4 bc
       0.03286358 0.078027494 -0.021324024 -0.020130306
0001b0 33 9e 46 bd 8e e6 f1 bc 30 93 b3 bd bb 7c 33 bb
       -0.048490714 -0.029528882 -0.08768308 -0.0027387578
0001c0 1a 8f 11 3e ef 9d 68 bd 40 64 38 bd 3e 97 d5 bc
       0.14214745 -0.056791242 -0.04501748 -0.026073094
0001d0 16 ce 5d bd 3d 6a a1 bc c4 7b 01 3c b8 d9 30 be
       -0.054151617 -0.019703979 0.007903043 -0.17270553
0001e0 70 bd fc 3c cd 46 5f 3d e2 70 20 be 93 2d 95 bd
       0.03085205 0.05451088 -0.15668061 -0.07284083
0001f0 33 ba 2b 3d 2b c5 4a bd 68 58 d9 bd 09 70 49 bc
       0.04192562 -0.04950444 -0.10612565 -0.012294778
000200 96 d8 8b bc c1 2b b5 bd 66 ca 29 3d 9a 6d 70 3d
       -0.01707105 -0.08846236 0.041452788 0.058698274
000210 20 95 12 bd 1a 4e cb 3c b7 03 a9 3d 9c 18 02 3d
       -0.035786748 0.024817515 0.08252662 0.03176175
000220 c3 3c b7 3d e0 81 45 3d 15 30 43 bd cf a2 95 bd
       0.08947136 0.04821956 -0.047653276 -0.07306444
000230 3a fb 9d bc be 79 4a bc 42 4c b5 3d 44 fd d0 3c
       -0.019284833 -0.012358127 0.08852436 0.025511391
000240 73 bf 67 3d 23 12 4e 3d 3e a4 59 3b 3c 38 d7 3d
       0.056579065 0.050310265 0.0033209468 0.10508773
000250 02 3b b7 bd f6 53 c9 bc 2b 8f c2 3c 24 ae 1b bd
       -0.08946802 -0.024576169 0.023749908 -0.03800787
000260 77 c4 06 3b b7 7e 0d bd a1 52 a7 3d cf f4 e7 3c
       0.002056388 -0.034544673 0.08170057 0.028314976
000270 ca 46 91 bd a5 0d 98 3d 76 93 9e bd 10 89 6a 3d
       -0.0709358 0.074244775 -0.0774297 0.05725962
000280 b2 dd 97 3b 65 cb f0 bb 84 24 83 3d ea d5 8f 3d
       0.0046345824 -0.0073484653 0.06403449 0.07023223
000290 70 9c 66 3d 6d ed 9f bd 68 fb 4f 3a 31 4c 35 3c
       0.056301534 -0.07808957 0.0007933886 0.011065529
0002a0 93 5d 13 3d 18 4a e1 bd 2f 68 ab 3d 65 58 66 3d
       0.03597791 -0.110004604 0.08369481 0.056236643
0002b0 a0 c8 48 bc 2d 84 b1 bc a8 1b 32 3d c8 bb 2e bd
       -0.012254864 -0.021669472 0.043483406 -0.04265955
0002c0 86 ee a3 bd 7e 2f fc bc 4f 0e 9f 3d 57 26 6f 3c
       -0.08004479 -0.030784365 0.07766401 0.014596543
0002d0 18 db 1f bd 56 48 07 be c9 78 f9 bd 26 80 f2 3c
       -0.039027303 -0.13211188 -0.12181241 0.029602122
0002e0 52 8a 89 bd 67 fc e6 bc e1 3f 7d bc b2 fc 08 bd
       -0.06715836 -0.028196527 -0.015457124 -0.033444114
0002f0 77 cd ff 3d dc 0d 85 bd 17 e7 fa 3d 94 20 6b 3c
       0.12490361 -0.06496784 0.12251108 0.014351029
000300 5e a9 7d bd d1 ec b3 bd 6f 24 8f 3d 22 cf 9b bc
       -0.0619291 -0.087854035 0.06989371 -0.019019667
000310 a7 87 4b 3d a5 58 27 3d 72 bb 67 3d c5 af 73 bd
       0.049689915 0.040856022 0.056575246 -0.0594938
000320 81 f5 ad 3d e0 87 93 bd 30 b1 da bd d6 cb dd bd
       0.08494092 -0.072036505 -0.10678327 -0.10829894
000330 c5 d8 0e 3d 7c 89 e5 ba 26 90 9a bd 45 1d c9 bd
       0.034874696 -0.0017512287 -0.075470254 -0.09820036
000340 21 07 d7 bc 54 cc 4f 3d 16 9b 86 bd f0 0c 1b 3c
       -0.026248517 0.05073197 -0.06572549 0.009463534
000350 a6 f1 c2 bd 80 63 21 bd e0 74 fe bc c1 0f b3 bd
       -0.09518747 -0.03940153 -0.03106159 -0.08743239
000360 7d dc 68 3c 4b 35 1e bd 8c 77 91 ba fa 8a cb 3c
       0.014212725 -0.038625043 -0.001109825 0.024846543
000370 94 1f 85 bc 1a 36 81 bc da 6e 4e bd d9 ad f0 3a
       -0.01625041 -0.015772868 -0.050398685 0.0018362358
000380 6c d5 7a 3c 38 ea 18 3d e2 03 46 bd 9f 71 fe 3d
       0.015309673 0.037332743 -0.048343547 0.12424015
000390 7f 82 35 be c8 b4 71 bd 35 46 0b bd ba f1 ca bd
       -0.17725562 -0.059010297 -0.0340025 -0.09909387
0003a0 9c b6 e6 3d cb 41 7b bc 6f cc ba bd bb 32 e0 3d
       0.11265299 -0.0153355105 -0.09121024 0.10947176
0003b0 e0 57 19 bd d9 1b 40 bd 95 ee ee bd 5e 0b ee bc
       -0.03743732 -0.046901558 -0.116666 -0.029058155
0003c0 32 cc 0a 3e 79 6a 96 3d 87 7d c2 3c 22 14 aa 3d
       0.13554457 0.07344527 0.023741497 0.08304621
0003d0 80 72 c7 bb 53 60 a5 bd 89 42 c0 3b fb 40 03 bd
       -0.0060866475 -0.08075013 0.0058673066 -0.032044392
0003e0 ee 04 1e 3d 81 b8 28 bc 31 8d d3 3a 38 3e 96 bd
       0.03857892 -0.010297895 0.0016140101 -0.07336086
0003f0 ba 4d 04 bd 0e b0 38 3d e5 56 2e bd 23 67 03 3d
       -0.03230069 0.045089774 -0.042563338 0.03208078

bias_ih_l0 f4 [512]
000000 ab db fc 3c 88 3b 90 bc 0d fe 67 3a 50 24 01 3e
       0.030866465 -0.017606512 0.0008849807 0.12611508
000010 c7 75 6d 3e eb d6 9e 3d 78 c2 ac bd b6 d9 89 bd
       0.2318946 0.07755836 -0.084355295 -0.06730978
000020 2f 66 3e 3d 49 24 43 3d ec 01 b1 3d c7 fe da 3d
       0.04648417 0.047642026 0.08642945 0.10693126
000030 2d 05 20 3d 52 ad 18 bc 20 c8 da 3c 73 bb 68 3e
       0.039067436 -0.0093186665 0.026706755 0.22727756
000040 45 6a c2 3c b7 81 94 bd d5 b4 b0 3d 76 ba 98 3d
       0.023732314 -0.07251304 0.08628241 0.074574396
000050 82 cb 2f 3e 95 1a 13 3e 6f 1f 8a bc 79 1e ee bc
       0.17167476 0.14365609 -0.016860692 -0.029067265
000060 6d 07 c2 3d bd 23 d9 3d 9d 1c 91 bd 8c 94 0d bc
       0.094740726 0.1060252 -0.07085536 -0.008641373
000070 c9 a3 9e 3d d9 12 cb 3c 9b 2b e9 3d 57 2d ae bc
       0.07746083 0.02478926 0.1138527 -0.021261854
000080 e4 fd 53 3d e2 7e ab 3d a7 34 87 3d fc 44 e3 bb
       0.0517558 0.0837381 0.066018395 -0.006935714
000090 0f 3d 7a 3d 78 96 3d 3e 40 f4 79 bc d1 5f 2e 3d
       0.061093386 0.1851443 -0.015255988 0.042571846
0000a0 bd 5f 42 3d c5 a0 81 bd 08 cb 80 3c 52 f4 4b bd
       0.047454584 -0.063294925 0.015721813 -0.04979355
0000b0 09 2b cc bc 55 6a 3d 3e 65 96 84 bc 2d e9 4f 3c
       -0.024922865 0.18497594 -0.016184995 0.012689871
0000c0 5e eb 0d 3c 4a 53 3e bd d1 11 f5 3c 24 b6 cf 3c
       0.008662073 -0.04646615 0.029915722 0.025355406
0000d0 80 be 4e 3e bb e4 fd bc bd c7 6a 3e 47 90 0e 3e
       0.20189857 -0.030992856 0.22927757 0.13922225
0000e0 8d a6 20 bc f4 b9 04 bc ad c3 b7 3c 81 5a da bc
       -0.009805334 -0.008100975 0.022432173 -0.026654484
0000f0 d9 04 a9 bc 4f 3c c1 3d 2d 41 cd 3d 68 78 0c 3d
       -0.020632194 0.09435331 0.10022197 0.034294516
000100 25 cf 6f bd b3 25 e0 bc 02 93 18 3d 34 0f 00 bd
       -0.058547158 -0.027361726 0.037249573 -0.0312645
000110 74 b8 36 bd 88 5e 93 bd 5f 5b 31 bd 98 ee 69 bb
       -0.044609502 -0.07195765 -0.04330003 -0.0035695191
000120 4e db 17 bd 64 74 e9 3d 52 d6 88 bd a1 55 ae 3d
       -0.03707438 0.11399153 -0.06681503 0.08512426
000130 90 d5 02 3d 28 18 55 3d 35 6e b6 bd eb 18 89 3d
       0.03194195 0.05202499 -0.08907739 0.06694206
000140 f4 90 98 bd c8 16 8c bd 05 aa 1b bd be a1 c5 3d
       -0.074495226 -0.06840283 -0.03800394 0.096499905
000150 1e ca ac bd bf 9c be 3d 08 f0 74 bd 56 b3 87 3d
       -0.08436988 0.09307241 -0.059799224 0.066260025
000160 dc b7 8b 3c 4b d5 c0 bd a2 46 e0 3d 84 8f 24 ba
       0.017055444 -0.094156824 0.10950972 -0.0006277489
000170 99 24 2b 3c 6e 53 67 3d 7a 86 22 3d b1 a2 ac bd
       0.010445737 0.05647605 0.039679028 -0.084294684
000180 02 8f a9 bd 9d cd d3 3d 43 6b 2a bc 8d 04 70 3d
       -0.0827923 0.10341952 -0.01040155 0.05859809
000190 07 4c 81 3e 13 54 e2 3d c2 11 53 3d f5 e3 8a 3d
       0.25253317 0.11051192 0.051530607 0.067817606
0001a0 55 31 1d bb 37 bc b7 3d 83 27 4f bc 26 1d 7d 3e
       -0.0023985703 0.08971446 -0.012643698 0.2471815
0001b0 bd fc 54 3d f0 07 68 bd 3a 97 26 3d a7 b0 a4 bc
       0.051998843 -0.056648195 0.040671565 -0.020103766
0001c0 be 35 bb 3d 6c 36 22 3d 5e 6b 9b 3d c4 42 6c 3d
       0.0914111 0.039602682 0.07588838 0.05768086
0001d0 04 62 27 3d a0 c4 65 bc 45 fb 0a 3e 58 2f 82 3d
       0.04086496 -0.01402393 0.13572414 0.06356686
0001e0 2d 08 46 bd 0a ec e3 3c 6e 54 69 3c d5 12 f6 3d
       -0.04834764 0.027822513 0.014241321 0.12015311
0001f0 6a 50 87 3d 6c 71 a0 3c 2d 45 62 bd 98 ec b8 3d
       0.06607135 0.019585334 -0.055241752 0.09029502
000200 eb 9d 21 3e 1f 4f 03 3d 01 aa 8b 3c e8 c0 f2 bb
       0.15782897 0.032057878 0.017048838 -0.00740825
000210 6f 09 6f 3d b8 a0 9c bd 8d c1 d5 3d 97 5c b7 bb
       0.058358606 -0.07647842 0.104373075 -0.0055957544
000220 0d eb c1 bd 35 5b b7 bc 66 b3 55 3c a1 4b 4d 3d
       -0.094686605 -0.022382358 0.01304326 0.050120953
000230 42 77 72 bd 90 ac ed 3c a4 2a 89 3a 73 89 b3 3d
       -0.059195764 0.029012948 0.0010464978 0.08766451
000240 38 e0 9a bd ea af 39 bd b5 d6 ab 3d 31 35 30 3d
       -0.075622976 -0.04533378 0.083905615 0.043019477
000250 f0 a3 3c 3d 44 2a d9 3d 4a 9a 95 bd 18 81 99 3d
       0.04605478 0.10603765 -0.07304819 0.07495326
000260 da 49 99 3d 0d d0 8c 3d e6 e6 d5 3d b2 0a 0c bc
       0.07484789 0.0687562 0.10444431 -0.008547472
000270 e5 61 3a 3d a4 3b 77 3c d0 41 cd 3d 4d 2f 81 3d
       0.045503516 0.015089903 0.10022318 0.0630785
000280 0e e2 b1 3c 42 4b cc bc 0d 16 ff 3b 93 14 61 bd
       0.021714237 -0.02493823 0.007784611 -0.05495126
000290 be 3d 0d bd 9a 43 be 3d af 86 b8 3d a1 c8 bf 3d
       -0.03448271 0.09290238 0.09010064 0.09364439
0002a0 a3 d9 1c 3e c1 6e 1b 3c 04 ec 9f 3d b0 5f cb 3d
       0.15317397 0.009486855 0.07808688 0.0993036
0002b0 41 b3 e1 3b cb 41 21 3e d8 5a 7e 3b c4 c1 a9 3c
       0.006887824 0.15747754 0.0038811471 0.020722277
0002c0 5a 04 7a bd e5 f0 79 bd d7 fc 4a 3d 38 e5 c5 3d
       -0.061039306 -0.06102075 0.049557533 0.09662861
0002d0 f0 0e 50 3d 3b 1d 0f 3e d1 a4 4d 3d 75 b1 8a 3c
       0.050795496 0.13975994 0.05020601 0.016930321
0002e0 9f c2 26 3e ac f4 7e 3d cd e2 83 bb 73 f9 df 3b
       0.1628518 0.062245056 -0.0040248395 0.0068351566
0002f0 9a 97 dc bc 9a 33 ae 3a c2 c9 5f bd 99 33 16 3c
       -0.026927758 0.0013290525 -0.05463577 0.009167575
000300 b4 80 48 bd 46 47 b6 bc de af b9 3d b3 4d d1 3d
       -0.048950866 -0.022250783 0.09066747 0.10219898
000310 04 6c fe 3d 13 a6 83 3c e7 08 6c bc 82 c5 a7 3d
       0.12422946 0.016070401 -0.014406419 0.081919685
000320 fe 9f 7c bd e9 f8 03 3e 9f 37 76 3d 01 8e f6 bc
       -0.061676018 0.1288792 0.06011164 -0.03009701
000330 97 0d 85 3d eb c0 a0 3d 98 14 45 bc f3 cf 64 3d
       0.06496733 0.07849296 -0.012028836 0.05586238
000340 a3 42 af 3d d5 fa 40 3e 8b 05 09 bd c1 b9 b4 3d
       0.08557632 0.18845685 -0.03345255 0.08824492
000350 8d 48 e7 3d f2 cc 8f 3d 0d 49 93 3d 93 37 bb 3d
       0.11293135 0.07021512 0.07191668 0.09141459
000360 fd 35 bf bb 4f ba 25 bd dc c3 d9 3d f6 42 2c 3e
       -0.0058352933 -0.04046088 0.1063306 0.16822419
000370 3f cd 90 3d 37 31 56 bd c7 0e fb 3d c2 d3 66 3c
       0.070703976 -0.05229303 0.12258678 0.014088573
000380 8f e5 bc 3d d7 a1 2c 3d 73 32 90 bb 7d e1 d8 3c
       0.09223472 0.04214653 -0.0044005453 0.026474709
000390 ac ca 0f 3d f0 b5 11 3d e7 b8 84 bd 36 62 2f 3d
       0.035105392 0.0355739 -0.0648058 0.04281827
0003a0 e3 81 26 3e 7a 8b 3e 3d b1 0b 10 3d 75 11 9e bc
       0.16260485 0.046519734 0.0351674 -0.019295434
0003b0 74 d0 6c ba 93 2d cd 3d 37 07 05 bc 12 0c 6e 3c
       -0.00090337475 0.10018458 -0.008119396 0.014529245
0003c0 fa 75 87 3d c6 ad 55 bc 65 a1 43 bd d9 aa b4 3d
       0.06614299 -0.013041919 -0.04776134 0.08821649
0003d0 5b e6 6f 3d 30 f5 fd bc 61 31 1c 3e 28 f7 42 bc
       0.058569293 -0.031000704 0.15253212 -0.011899747
0003e0 d5 4b 3f bd 9d 6f 4c 3c 15 45 8d 3d 4c 8a 00 3e
       -0.04670318 0.012477783 0.06897942 0.12552756
0003f0 7d 3f ef 3c 33 36 a4 3c 4f 99 bf bc 5c cd 6c 3b
       0.029205078 0.020045375 -0.023388533 0.0036133146

bias_hh_l0 f4 [512]
000000 5c 40 16 3d 78 ec 0c bc b9 95 98 3d 21 53 43 3e
       0.03668247 -0.0086013 0.07450432 0.1907468
000010 94 2c 5d 3e cf 04 a4 3d 36 d4 78 bd ae 15 de 3b
       0.21599036 0.0800873 -0.060749255 0.0067774868
000020 db 6d 43 3d 2e 66 68 3d bb 3f 89 3d 6e c8 ed 3d
       0.04771219 0.05673807 0.06701609 0.116104946
000030 71 f1 6a 3d b2 d4 17 bd 86 b6 61 3d b0 3f 07 3e
       0.057359163 -0.037068076 0.05510571 0.13207889
000040 f4 1e 87 bc d9 8d a1 bc d0 4f 97 3d 6d 32 b6 3d
       -0.016494252 -0.019720959 0.0738827 0.08896337
000050 aa 29 32 3e ac f9 0f 3d 94 4f 4b bd 7a 7b 0b 3e
       0.17398706 0.035150215 -0.04963644 0.13621321
000060 21 aa a6 3d 39 a7 d3 3d 4c ae 34 3d 6e 8a 8c 3d
       0.08137918 0.103346296 0.044111535 0.06862341
000070 8e 5e 21 3e be 84 e2 3d 1c 7e 80 3d 03 cd 44 bd
       0.15758726 0.11060475 0.062740535 -0.048047077
000080 00 33 d8 bc a9 a7 d6 3d 55 c6 79 3b df 67 f0 3d
       -0.026391506 0.104811974 0.00381126 0.11738562
000090 25 79 86 bb 24 95 a9 3e 3b e8 3e bc 55 36 07 3e
       -0.004103797 0.33121598 -0.011652048 0.1320432
0000a0 6d 2f 96 bc 53 71 d9 3b f1 33 62 3c e3 4e 5b bd
       -0.018333161 0.0066358238 0.013806329 -0.05354203
0000b0 cd 05 e5 bc ed 6d 17 3e 16 25 78 3d 27 e3 cf bc
       -0.027956868 0.14788027 0.060582243 -0.02537687
0000c0 55 c7 46 3d 88 c0 87 3b 2b db e8 3b 42 41 da bb
       0.04852994 0.0041428246 0.007106205 -0.0066606114
0000d0 04 23 59 3d 2d 36 08 3d 3e 20 1c 3e a4 42 73 3e
       0.05301191 0.03325479 0.15246674 0.2375589
0000e0 8a 6b d0 3d 61 4d de 3d b5 db f9 3d 75 43 77 bd
       0.101767614 0.108546026 0.12200109 -0.060367066
0000f0 a0 bf 14 3e db c8 12 bd 5f e0 b3 3d d1 f8 a3 3d
       0.14526224 -0.035836082 0.0878303 0.08006442
000100 bd 90 0d bc a9 83 9d 3d 46 32 94 3d 4f ea 74 3d
       -0.008640465 0.07691128 0.072361514 0.059793767
000110 bf 16 aa bc 1f 5e 0a 3d f3 0b 5c 3d b3 9c 7e 3d
       -0.0207628 0.033781167 0.053722333 0.06216116
000120 01 d9 bd bb 1c b3 64 bb 1e a0 6b 3d e8 f5 85 3d
       -0.005793691 -0.0034896797 0.057525747 0.065410435
000130 55 95 a6 3d bc bf c1 bd ee cb 5f 3d 41 09 80 bd
       0.081339516 -0.094603986 0.054637842 -0.06251765
000140 75 cf e9 bc 67 39 9b bd fa e6 6b bd b0 c3 f5 3c
       -0.028541306 -0.07579308 -0.057593323 0.030000538
000150 0b 77 4f bc 18 6f 9f bc bb 50 53 3d 74 00 f7 3d
       -0.012662659 -0.019462153 0.051590662 0.12060633
000160 d3 9e 85 3d 72 98 b1 bd 96 55 4d bd 87 a4 47 3d
       0.06524434 -0.08671655 -0.05013045 0.04874089
000170 91 bf 9d 3d 2b 43 56 3c 9b f5 58 3c 6b e8 80 bd
       0.07702554 0.0130775375 0.013242151 -0.0629433
000180 62 68 82 3d 46 5b 8b 3d 62 30 4b 3d 83 19 c1 3d
       0.06367566 0.068045184 0.04960669 0.09428694
000190 7f 16 2e 3e 73 39 e9 3d 93 3b b0 bd c9 cc 7f 3d
       0.17000769 0.11387911 -0.08605113 0.062451158
0001a0 43 43 11 3d 6c ce ba 3d 7c 7e 66 3d dd d9 46 3e
       0.035464536 0.09121403 0.05627297 0.19419046
0001b0 60 6e 11 bd 53 23 2a 3b 2d dd f9 3d cb 76 43 3d
       -0.035505652 0.0025960996 0.12200389 0.04772071
0001c0 41 85 8b 3c d9 5a 79 bd 4c 81 07 3d 3c d6 e7 3d
       0.017031314 -0.060877655 0.03308229 0.11320159
0001d0 b8 ab d0 3b 5c 56 1b bd 66 de 04 3e b7 bb ac 3d
       0.0063681267 -0.037924156 0.12975463 0.08434241
0001e0 61 51 a3 bd 3e 10 23 3d 28 a0 96 3c 77 70 ce 3d
       -0.07974506 0.03981041 0.018386915 0.10080045
0001f0 d6 48 36 bd 42 09 01 bd e5 34 36 3c fc ce 51 3d
       -0.044503056 -0.03150297 0.0111210095 0.051222786
000200 8a 5e a5 3c 4b 2c 6a bd c2 a0 50 bd d0 02 ec 3d
       0.020186681 -0.057171147 -0.05093456 0.11523974
000210 49 9c 01 3e 1c 8f 62 3d fb 26 de 3d c4 2b 38 bd
       0.12657274 0.05531226 0.10847279 -0.044963613
000220 1a 4a cc 3b 55 98 f3 3d e1 a8 72 bd 17 82 98 3d
       0.0062344195 0.118942894 -0.059243087 0.07446688
000230 ab cf 07 bc 87 50 8c bd 0a f8 0e 3d a2 e9 f6 3c
       -0.008289258 -0.06851297 0.034904517 0.030140702
000240 75 9d 7c 3d f0 e5 79 3d 66 f3 9f 3c c1 8a 09 3c
       0.0616736 0.0610103 0.019525241 0.008394898
000250 20 75 65 bd 53 51 6b 3d 9b bb 8b 3d dd e3 b8 3d
       -0.056019902 0.057450604 0.06822892 0.090278365
000260 bd e2 40 3d ca 6a 97 3d 3b 17 c0 bc 08 88 4e bb
       0.047091234 0.07393415 -0.023448577 -0.0031514186
000270 31 1f eb 3d 19 15 d6 3d 75 94 0a 3e d4 21 ce 3d
       0.11480559 0.10453243 0.13533194 0.10065046
000280 6b d3 94 3d 86 df 97 3c c6 5f ac bd 95 1a 9e 3d
       0.07266887 0.018539201 -0.08416705 0.07719914
000290 3e 42 04 3e f7 35 e9 bc 63 74 04 3e 1b 56 16 3e
       0.12915894 -0.028468115 0.12935023 0.14681284
0002a0 7e f6 b0 3d e5 e3 c5 3d 68 51 0e bd 33 d1 2b 3d
       0.08640765 0.09662608 -0.034745604 0.041947555
0002b0 0e 62 d4 3d 3d 09 06 3e b3 51 ab 3d 17 fd b9 3c
       0.10370265 0.13089462 0.08365192 0.02270369
0002c0 6a b8 c0 3d c5 57 16 bc b7 06 ed 3c 08 58 dd 3c
       0.09410174 -0.009176199 0.028933866 0.027019516
0002d0 91 36 38 3d a8 33 93 3b 95 8e 76 3d 20 b8 a4 3d
       0.044973914 0.004492242 0.06019457 0.080429316
0002e0 bc b7 93 3c d5 56 9c 3c 5d f9 b1 3d 70 71 2a bd
       0.018031947 0.019084373 0.086901404 -0.04161209
0002f0 f1 9d 08 3d 83 2a 81 3d fe af e0 3d d3 23 b8 bc
       0.03335375 0.063069366 0.10971068 -0.02247802
000300 ea 85 32 bd fe a8 72 bc 98 05 a1 3d e2 25 aa 3b
       -0.04358474 -0.014810799 0.07862395 0.0051925043
000310 6b 83 9f 3d 32 52 75 3d fe 86 dc 3d ba 28 64 bc
       0.07788738 0.05989284 0.10767935 -0.013925726
000320 62 83 71 3d c7 56 34 3d c8 fc 10 3d d5 39 01 bd
       0.058963187 0.04402807 0.03539732 -0.031549294
000330 e7 70 21 bb fb 3f 63 3c 36 90 3b 3d b8 47 b0 bd
       -0.0024633945 0.013870235 0.045791827 -0.08607429
000340 13 8c cd 3d 8a fc 43 3e bb c1 89 3d 8a 6a d5 3d
       0.10036483 0.19139305 0.06726404 0.10420711
000350 e7 78 45 3d 88 71 77 3d 7f 3d d9 3d 59 09 dd 3d
       0.048211005 0.060411006 0.106074326 0.107927985
000360 10 7e 2a 3d 4a 72 93 3d ef 60 71 3d f2 32 03 3e
       0.04162413 0.07199533 0.058930334 0.12812403
000370 b5 a2 5c 3d 21 5e cf bc e4 46 ce 3c b7 da 3c 3d
       0.053866107 -0.025313439 0.025180288 0.04610702
000380 04 b2 29 bd 44 a7 0e 3d fe e6 bf 3d e0 77 38 bd
       -0.041429535 0.034827486 0.0937023 -0.045036197
000390 96 94 94 3d 54 f6 28 3d 47 51 6a bd 47 f1 19 3e
       0.07254903 0.04125054 -0.05720642 0.15033446
0003a0 77 61 25 3e 7d 26 c2 3c 87 7d 0a bd 10 5d 39 3c
       0.16150461 0.023699993 -0.03381112 0.011313692
0003b0 48 27 97 3d d0 89 bd bc 59 35 7d 3d fc 09 e1 3c
       0.07380539 -0.023137003 0.061818454 0.027470581
0003c0 2f c2 1d 3d b1 0d 63 3d 52 66 0e bd 3a b9 0a 3c
       0.038515266 0.05543298 -0.03476555 0.008467013
0003d0 84 aa ec 3d c5 82 ae bc d9 07 27 3d a4 e9 f3 3c
       0.11555961 -0.02130259 0.04077897 0.029774494
0003e0 57 b8 10 bd 26 18 14 bd 7b 78 3e 3d 35 1c dc 3d
       -0.03533205 -0.036155842 0.046501618 0.107475676
0003f0 ca be 86 3c b3 5e a1 3d a4 1b 67 bd 47 12 a4 bc
       0.016448397 0.078793906 -0.056422845 -0.020028247

weight f4 [48, 128]
000000 4c bf a6 3a 63 bf bf 3c 46 30 14 be f3 2e 32 bd
       0.0012721806 0.02340669 -0.1447154 -0.043501806
000010 a6 79 22 3d 9b 29 f4 3d c5 7a 88 3d e3 fa 0f 3e
       0.039666794 0.11921998 0.066640414 0.1406055
000020 0b f2 44 bd bb fa 62 3d 3c fe 63 3d 43 08 17 be
       -0.048082393 0.055414896 0.05566238 -0.14749245
000030 41 02 95 3d d4 7d 52 be 36 f0 62 3d 6e 6f be bd
       0.072758205 -0.20555812 0.055404864 -0.09298597
000040 9f 4e a0 bd 62 15 34 ba ac 68 7b bd 30 b6 d0 bc
       -0.07827496 -0.00068696414 -0.06137912 -0.025477499
000050 99 3e bd bd 4b 0e fd 3c 58 19 9b 3d 1c 20 88 3d
       -0.09240455 0.030890604 0.07573193 0.066467494
000060 a0 32 05 bd 52 85 9c bc 5a c5 94 3d cc bf 23 bd
       -0.032518983 -0.01910654 0.07264204 -0.039977834
000070 9c 94 5d 3c aa a2 ce bc d3 0d fb b9 80 82 dd 3d
       0.013524201 -0.025224049 -0.0004788475 0.108159065
000080 02 32 1b bc 0b 88 0f be e3 25 b0 bd 4f 0a 0e be
       -0.009472372 -0.1401674 -0.08600976 -0.1387112
000090 03 b4 0c bd 3e f4 d3 bd f3 06 a1 3d 56 1e 08 3c
       -0.03435136 -0.1034932 0.078626536 0.008308014
0000a0 63 7a 23 3d c4 45 e8 bc aa db f9 bc 62 ea 5d bd
       0.03991164 -0.02835358 -0.030500252 -0.054178603
0000b0 7c 2b b7 bc b8 0b 86 3c 4c bc 8f 3d 23 82 cb 3e
       -0.022359602 0.01636301 0.07018337 0.39747724
0000c0 09 c4 06 3e 66 60 03 3e 7d 57 3c bb d1 27 97 3d
       0.13160719 0.12829742 -0.002873867 0.07380641
0000d0 c5 75 df bc 32 31 09 3d d1 53 b3 3c b9 0d 16 3e
       -0.027277837 0.033494182 0.021890553 0.14653672
0000e0 17 25 21 3c 50 86 ac bd 6f 6e 62 3b fa d6 1e bd
       0.009835503 -0.084240556 0.0034550687 -0.038779236
0000f0 ac 71 2d bd 6c 3d 1b 3e bc 01 9d bd 63 16 ef bd
       -0.042344734 0.1516015 -0.076663464 -0.11674192
000100 c5 ae f2 bd 6a e1 bf bd 36 17 c6 bd de 95 2a bd
       -0.11849741 -0.09369166 -0.09672396 -0.04164683
000110 78 85 c2 38 1a 9e 91 3d 63 96 2e 3c 42 08 9e bd
       9.275501e-05 0.071102336 0.010655972 -0.07716419
000120 f8 97 8c bd ff f5 89 3c 7e 57 37 3d b3 b9 ca bc
       -0.06864923 0.016840933 0.044761173 -0.024746751
000130 18 89 74 bd df c4 43 bd 7c f9 cb 3c ab 3c cd bd
       -0.059701055 -0.047795173 0.024899237 -0.10021337
000140 c2 bd 99 bc 85 b4 17 bd 2e 4d f6 3b 5f cf 09 bd
       -0.018767241 -0.03703739 0.0075165248 -0.03364503
000150 fe e8 a6 bc a8 24 3f 3e 34 88 9c 3c 97 82 ee bc
       -0.020374771 0.18666327 0.019107915 -0.029115004
000160 64 59 8a 3d 44 9e 4b 3d 0a a8 93 bd 07 a8 a2 bc
       0.06755331 0.04971148 -0.07209785 -0.019855512
000170 a8 c3 32 3d 6b 67 7c be 99 33 71 bc 58 42 fb 3a
       0.043643624 -0.24648826 -0.0147217745 0.0019169552
000180 f6 8b de bd 11 c5 23 3d 37 0b 5c bd a0 5f 59 be
       -0.10866539 0.03998286 -0.053721633 -0.21227884
000190 62 08 58 be a4 f1 50 3d 09 a5 8a bd aa 20 e2 3c
       -0.21096948 0.051011696 -0.06769759 0.027603466
0001a0 14 c2 d1 3c 42 20 9d bc 75 f4 09 3d 7e aa a4 3e
       0.025605239 -0.01918042 0.033680398 0.32161325
0001b0 ff 78 93 3e d6 d0 bc 3d b3 95 ef bc c8 18 83 3e
       0.2880325 0.0921952 -0.029246187 0.25604844
0001c0 da 17 e9 bd 93 61 06 be 00 14 ee bb 7c c4 67 3c
       -0.113815024 -0.13123159 -0.007265568 0.014145967
0001d0 5f eb c0 3d 73 87 24 3d e0 9e 32 bd 2a 66 33 bd
       0.094198935 0.040168237 -0.043608546 -0.043798603
0001e0 82 32 be bb 79 63 39 3e c2 21 55 3e 0f 0d 68 3d
       -0.005804361 0.18104352 0.20813659 0.05665308
0001f0 f3 75 df 3c 44 44 d9 3d fb ab 2c 3d 2f 1a aa 3d
       0.027277922 0.10608724 0.0421562 0.083057754
000200 7c e0 4d bc ce 23 1d bd a3 30 13 be 8f 2d b2 bc
       -0.012565728 -0.038364224 -0.14374022 -0.02175024
000210 2e 37 1f 3c 67 9e 0f 3e 49 7e 97 3d ca c6 7e 3d
       0.009717746 0.1402527 0.07397134 0.0622013
000220 77 70 0c 3d 50 95 7d 3d fe fd b4 3d 8c f5 10 be
       0.034286942 0.061909974 0.08837508 -0.14156169
000230 e0 1d cc bb f1 18 02 be 80 d5 db 3d e6 fa 1c bd
       -0.0062291473 -0.12704827 0.10734081 -0.038325213
000240 64 c4 ad 3a 80 c1 f0 bc 07 e8 18 be 0f 89 1b bd
       0.0013257382 -0.029389143 -0.14932261 -0.037972506
000250 af 0c b4 bd 88 90 e9 3c 1e 98 60 3d 45 91 b0 3d
       -0.08791482 0.0285113 0.05483257 0.08621458
000260 e5 84 45 ba d9 f9 49 3c 78 89 0a 3d ec 14 16 be
       -0.00075347564 0.012327635 0.033822507 -0.14656419
000270 25 aa d5 3c 44 a1 13 bd fa 75 7b 3c da c2 f9 3c
       0.026082108 -0.036042467 0.015347952 0.03048842
000280 e9 ba 7e 3d 23 bd 93 bd 49 9a 8b 3c 68 19 ff bd
       0.06218997 -0.07213809 0.017041342 -0.12456018
000290 36 8c 9f bd 4e ae cd bd 68 86 5d 3d 33 0d 94 bb
       -0.07790415 -0.100430116 0.054083258 -0.004518175
0002a0 18 18 7d 3d 00 9f a4 3b 6a 63 63 bc e7 b1 89 bd
       0.061790556 0.005023837 -0.013878683 -0.06723385
0002b0 39 bd 59 bc 60 db 9e 3b 33 6d 08 3d ed 8d a8 3e
       -0.013289743 0.004847929 0.033307265 0.3292078
0002c0 3a 5b 7e 3d 5b 47 c0 3d e1 02 3a bc f2 6a 45 3d
       0.06209872 0.0938861 -0.011353225 0.048197694
0002d0 f8 2a b4 bd 57 c1 4d 3d 3e 35 24 3b 77 4c 0e 3e
       -0.08797258 0.05023321 0.002505615 0.13896357
0002e0 4a 57 c2 bc d4 46 17 bd b3 f1 90 3c 0d a8 37 bd
       -0.023723263 -0.03693278 0.017693376 -0.044838
0002f0 17 61 d5 bc 57 11 fc 3d d1 1e bd bd d0 68 e2 bd
       -0.026047273 0.12307995 -0.092343934 -0.11055148
000300 a9 37 92 bd d1 53 8d bd a0 5a db bd 6e 54 85 bd
       -0.071395226 -0.06900752 -0.10710645 -0.06510244
000310 6a 59 8c 3c 60 53 8d 3d 57 a8 67 bd fb b9 3a bd
       0.01713248 0.06900668 -0.056557026 -0.04558752
000320 74 81 7c bd c3 df 1f bd f1 2d b6 3d fb 2f ef 3a
       -0.061646894 -0.039031755 0.088954814 0.0018248552
000330 56 9e 2e be ba e9 8c bd 5d 23 b7 3d 5e d7 f9 bd
       -0.17052588 -0.06880517 0.08942292 -0.12199281
000340 d9 99 74 bd 64 af 2a bc fe af 0f 3d 73 da 00 bd
       -0.059717033 -0.010417793 0.03507995 -0.03145833
000350 06 f3 7a bc b9 f0 03 3e c3 15 a1 3c b0 f4 e6 3c
       -0.01531673 0.12884797 0.019663697 0.028192848
000360 bb 13 57 3d f7 6e dc 3d 25 a0 fc bc d9 ed 9b 3b
       0.05250905 0.10763352 -0.030838082 0.0047585783
000370 19 08 6b 3c 5f ea 98 bd e7 07 e0 bc 99 2d 52 3c
       0.014345192 -0.07466578 -0.027347518 0.012828254
000380 ee 16 c2 bd c4 48 86 3d 10 5c 20 bd 36 7b bf bd
       -0.0947703 0.06556848 -0.039150298 -0.093496725
000390 0a 69 45 be f6 4b b1 bd 04 bf 95 3c c5 92 52 3d
       -0.1927835 -0.086570665 0.01827956 0.0514095
0003a0 07 26 bf 3c da 2f 8b bd 50 cc e8 3c 6e 6b 9c 3e
       0.023333563 -0.06796236 0.028417736 0.30550712
0003b0 0a c7 0b 3e 8e 4a e2 3d a9 56 cd bc c9 d0 9a 3e
       0.13650146 0.110493764 -0.025065737 0.30237415
0003c0 73 9e 0e bd 16 c3 b7 bd 01 84 d8 bc 10 60 75 bc
       -0.034819078 -0.089727566 -0.026430132 -0.014976516
0003d0 13 58 c0 3d ea a2 d1 bc 35 e2 be bb cf e4 96 bd
       0.09391799 -0.025590379 -0.005825306 -0.073678605
0003e0 d6 70 c4 3c ba e1 35 3e 66 c9 6b 3e e1 b2 9e 3c
       0.023979586 0.17761889 0.23026046 0.019372405
0003f0 47 be a2 3c 3c 01 10 3d 39 40 07 3d 95 ea a4 3d
       0.019866122 0.035157427 0.033020232 0.080525555

bias f4 [48]
000000 e4 b3 58 bc 02 bc 4a 3d 68 5d 94 3d 58 50 03 3d
       -0.013226483 0.049495704 0.07244378 0.032059044
000010 13 8a 9c 3c 3a d7 ab 3a 24 be b1 3a 26 71 b9 3d
       0.019108808 0.0013110407 0.0013560695 0.090547845
000020 4d d2 15 3d 6d 99 ab 3d 01 95 ae 3d e8 d3 d3 3c
       0.03657751 0.08378873 0.08524514 0.02585788
000030 ca 40 e9 3d bb f6 df 3d c3 97 d7 3d 84 c7 68 3d
       0.11389311 0.10935732 0.10526993 0.056830898
000040 66 bb c3 3d e9 54 83 3d 52 9e f2 3d 54 f7 a0 3d
       0.09557228 0.0641268 0.118466035 0.07859674
000050 15 de ff 3d 71 18 f8 3d 62 5a 20 3c bc 83 dd 3d
       0.12493531 0.12114037 0.009787174 0.10816142
000060 d5 9a 22 3d 2f 59 bb 3d a5 41 c2 3d 89 1e 40 3d
       0.03969844 0.0914787 0.09485177 0.04690412
000070 d0 83 8f 3d ce bd 9a 3d 56 32 40 3c 7d a8 6b ba
       0.07007563 0.075557336 0.011730751 -0.0008989645
000080 fe 5d b8 38 cd b7 ee 3c b6 b2 b1 3d 91 00 57 bc
       8.791311e-05 0.029140377 0.086766645 -0.013122694
000090 ba cc 01 bc 79 63 5e 3d dc 6c 83 3d 87 a1 da 3d
       -0.007922346 0.054294083 0.06417248 0.1067534
0000a0 4a 7a 87 3d 18 92 d9 3d 06 56 10 3c 76 78 f2 3d
       0.06615122 0.10623568 0.008809572 0.11839382
0000b0 b1 85 33 3d da 44 0a 3e c7 e8 08 3e c7 dc ad 3d
       0.04382867 0.13502827 0.13370048 0.084893756
